…
_uri":"https://localhost:8080/"},"id":"KWj7aCCka0_1","executionInfo":{"status":"ok","timestamp":1658259835639,"user_tz":300,"elapsed":93,"user":{"displayName":"Jin Tan","userId":"03441059472147495051"}},"outputId":"1ac03e04-b930-4428-ad68-b451bee6d541"},"execution_count":13,"outputs":[{"output_type":"stream","name":"stdout","text":["Model: \"sequential\"\n","_________________________________________________________________\n"," Layer (type)                Output Shape              Param #   \n","=================================================================\n"," rescaling_1 (Rescaling)     (None, 256, 256, 3)       0         \n","                                                                 \n"," conv2d (Conv2D)             (None, 256, 256, 16)      448       \n","                                                                 \n"," max_pooling2d (MaxPooling2D  (None, 128, 128, 16)     0         \n"," )                                                               \n","                                                                 \n"," conv2d_1 (Conv2D)           (None, 128, 128, 32)      4640      \n","                                                                 \n"," max_pooling2d_1 (MaxPooling  (None, 64, 64, 32)       0         \n"," 2D)                                                             \n","                                                                 \n"," conv2d_2 (Conv2D)           (None, 64, 64, 64)        18496     \n","                                                                 \n"," max_pooling2d_2 (MaxPooling  (None, 32, 32, 64)       0         \n"," 2D)                                                             \n","                                                                 \n"," flatten (Flatten)           (None, 65536)             0         \n","                                                                 \n"," dense (Dense)               (None, 128)               8388736   \n","                                                                 \n"," dense_1 (Dense)             (None, 3)                 387       \n","                                                                 \n","=================================================================\n","Total params: 8,412,707\n","Trainable params: 8,412,707\n","Non-trainable params: 0\n","_________________________________________________________________\n"]}]},{"cell_type":"code","source":["epochs=10\n","history = model.fit(\n","  dataset_train,\
…
